examples/pendulum/runs/30012024-165151/oneforall/model.pkl (npy, 35736 bytes, 1 tensors)

array f4 [64, 2]
0	0xbf7d607a	-0.98975337
1	0x3ec5ffde	0.38671774
2	0xbfa81493	-1.3131279
3	0xbd97507c	-0.07388398
4	0xbd2930cb	-0.0413063
5	0x3e20980f	0.15683006
6	0x3f019a90	0.5062647
7	0x3e9d3d9a	0.3071106
8	0xbf14a080	-0.58057404
9	0x3ed5acb7	0.41733333
10	0xbeb3d4a9	-0.35123184
11	0xbf250f5c	-0.6447656
12	0x3f48f4f1	0.7849875
13	0xbeb51788	-0.35369515
14	0x3de889f4	0.113544375
15	0xbf426ddf	-0.759489
16	0x3e8a64d3	0.27030048
17	0x3f0d3f92	0.55175126
18	0xbf3ebbba	-0.745052
19	0x3e47c374	0.19508153
20	0x3f4c711e	0.79860103
21	0xbf53ee35	-0.8278535
22	0xbf671703	-0.9026949
23	0xbf038325	-0.51371986
24	0xbf94af3f	-1.1615981
25	0xbeff7dd4	-0.49900687
26	0x3f9c0b66	1.2190979
27	0xbe4a8559	-0.1977743
28	0x3f0105a1	0.50399214
29	0x3d215048	0.039383203
30	0x3e65db2b	0.22446887
31	0x3f5ddcae	0.86664855
32	0xbeb464e1	-0.35233214
33	0xbf638b96	-0.88884866
34	0x3f5fd012	0.87426865
35	0x3f191dd7	0.59811157
36	0x3f6b7259	0.91971356
37	0xbf6430bd	-0.8913687
38	0x3f81ae3c	1.0131297
39	0xbf1d4b09	-0.6144262
40	0x3f25957d	0.64681226
41	0xbf4d8ed1	-0.80296046
42	0xbf205a76	-0.6263803
43	0x3f6e5cb1	0.93110186
44	0x3f99b00d	1.2006851
45	0x3f2f45cd	0.6846588
46	0x3f878dde	1.059017
47	0xbf89eb70	-1.0774975
48	0x3f94a4cd	1.1612793
49	0x3f222c0c	0.6334846
50	0xbf045fe2	-0.51708806
51	0x3f5a2b9e	0.85222805
52	0x3df6bfcb	0.120483
53	0x3f222f74	0.6335366
54	0x3f8209f5	1.0159289
55	0x3eda5eed	0.42650548
56	0xbf07bf3f	-0.53026193
57	0xbdbbbcfd	-0.09166906
58	0xbfad55c6	-1.3541801
59	0xbeaaccb2	-0.33359295
60	0x3f9bcde3	1.2172207
61	0x3f5428f3	0.82874984
62	0xbf7d33da	-0.98907244
63	0xbd8b7f46	-0.06811385
64	0xbf832413	-1.0245384
65	0x3e5a4f46	0.21319303
66	0xbfb1d619	-1.3893462
67	0xbef75811	-0.48309377
68	0x3edb7626	0.42863578
69	0x3f06f175	0.52712184
70	0x3f63d6e4	0.8899977
71	0x3f19766c	0.5994632
72	0xbf088ed0	-0.53342915
73	0x3fa9724b	1.3238004
74	0xbef38f7e	-0.47570413
75	0x3f564afb	0.8370816
76	0xbf4b111c	-0.7932298
77	0x3f45980c	0.7718513
78	0xbef7eba4	-0.48421967
79	0x3e85eeb4	0.2615868
80	0x3e255482	0.16145518
81	0x3f84631c	1.0342746
82	0x3f61bcd4	0.88178754
83	0x3d9f6508	0.07782942
84	0x3f5b2dfd	0.8561705
85	0xbebd9612	-0.37028557
86	0x3e71e3d1	0.23622061
87	0x3e86fada	0.2636326
88	0xbf202e66	-0.625708
89	0xbeff9fa6	-0.4992649
90	0xbf8080de	-1.0039327
91	0x3f098f29	0.5373407
92	0xbf1eca70	-0.62027645
93	0x3f1d298d	0.61391526
94	0x3fa1bc72	1.2635634
95	0xbdbc3304	-0.09189418
96	0xbfbb66a6	-1.4640701
97	0xbed1d1d2	-0.40980393
98	0x3f236d9d	0.6383913
99	0x3f038e42	0.51388943
100	0xbf0d15b6	-0.55111253
101	0xbf1ef907	-0.62098736
102	0x3f00292c	0.50062823
103	0xbf7239d8	-0.9461951
104	0xbfbc9462	-1.4732783
105	0xbf137680	-0.5760269
106	0xbc522928	-0.012827195
107	0xbf6a70f2	-0.9157859
108	0xbfc17b11	-1.5115682
109	0xbe870952	-0.26374298
110	0xbf0f1501	-0.55891424
111	0x3f75700f	0.9587411
112	0x3f89003b	1.0703195
113	0x3f222656	0.63339746
114	0x3f3c8fa8	0.736567
115	0xbf4dfdb0	-0.8046522
116	0x3f18845e	0.59576976
117	0x3f0e0ef6	0.5549158
118	0xbedeb52d	-0.434976
119	0xbf8643b1	-1.0489408
120	0xbeb4bb96	-0.35299367
121	0x3f91aef4	1.1381516
122	0x3f77d8b5	0.96815044
123	0xbe21a0e3	-0.1578403
124	0xbf6646b8	-0.8995166
125	0xbf6646e1	-0.899519
126	0x3ecf2ea6	0.40465277
127	0x3ee6c001	0.45068362
